----------------------------------------------------------------
        Layer (type)               Output Shape         Param #
================================================================
            Conv2d-1         [-1, 32, 112, 112]           4,704
       BatchNorm2d-2         [-1, 32, 112, 112]              64
              ReLU-3         [-1, 32, 112, 112]               0
         MaxPool2d-4           [-1, 32, 56, 56]               0
            Conv2d-5           [-1, 32, 56, 56]           9,216
       BatchNorm2d-6           [-1, 32, 56, 56]              64
              ReLU-7           [-1, 32, 56, 56]               0
            Conv2d-8           [-1, 32, 56, 56]           9,216
       BatchNorm2d-9           [-1, 32, 56, 56]              64
             ReLU-10           [-1, 32, 56, 56]               0
    ResidualBlock-11           [-1, 32, 56, 56]               0
           Conv2d-12           [-1, 32, 56, 56]           9,216
      BatchNorm2d-13           [-1, 32, 56, 56]              64
             ReLU-14           [-1, 32, 56, 56]               0
           Conv2d-15           [-1, 32, 56, 56]           9,216
      BatchNorm2d-16           [-1, 32, 56, 56]              64
             ReLU-17           [-1, 32, 56, 56]               0
    ResidualBlock-18           [-1, 32, 56, 56]               0
           Conv2d-19           [-1, 64, 28, 28]          18,432
      BatchNorm2d-20           [-1, 64, 28, 28]             128
             ReLU-21           [-1, 64, 28, 28]               0
           Conv2d-22           [-1, 64, 28, 28]          36,864
      BatchNorm2d-23           [-1, 64, 28, 28]             128
           Conv2d-24           [-1, 64, 28, 28]           2,048
      BatchNorm2d-25           [-1, 64, 28, 28]             128
             ReLU-26           [-1, 64, 28, 28]               0
    ResidualBlock-27           [-1, 64, 28, 28]               0
           Conv2d-28           [-1, 64, 28, 28]          36,864
      BatchNorm2d-29           [-1, 64, 28, 28]             128
             ReLU-30           [-1, 64, 28, 28]               0
           Conv2d-31           [-1, 64, 28, 28]          36,864
      BatchNorm2d-32           [-1, 64, 28, 28]             128
             ReLU-33           [-1, 64, 28, 28]               0
    ResidualBlock-34           [-1, 64, 28, 28]               0
           Conv2d-35          [-1, 128, 14, 14]          73,728
      BatchNorm2d-36          [-1, 128, 14, 14]             256
             ReLU-37          [-1, 128, 14, 14]               0
           Conv2d-38          [-1, 128, 14, 14]         147,456
      BatchNorm2d-39          [-1, 128, 14, 14]             256
           Conv2d-40          [-1, 128, 14, 14]           8,192
      BatchNorm2d-41          [-1, 128, 14, 14]             256
             ReLU-42          [-1, 128, 14, 14]               0
    ResidualBlock-43          [-1, 128, 14, 14]               0
           Conv2d-44          [-1, 128, 14, 14]         147,456
      BatchNorm2d-45          [-1, 128, 14, 14]             256
             ReLU-46          [-1, 128, 14, 14]               0
           Conv2d-47          [-1, 128, 14, 14]         147,456
      BatchNorm2d-48          [-1, 128, 14, 14]             256
             ReLU-49          [-1, 128, 14, 14]               0
    ResidualBlock-50          [-1, 128, 14, 14]               0
           Conv2d-51            [-1, 256, 7, 7]         294,912
      BatchNorm2d-52            [-1, 256, 7, 7]             512
             ReLU-53            [-1, 256, 7, 7]               0
           Conv2d-54            [-1, 256, 7, 7]         589,824
      BatchNorm2d-55            [-1, 256, 7, 7]             512
           Conv2d-56            [-1, 256, 7, 7]          32,768
      BatchNorm2d-57            [-1, 256, 7, 7]             512
             ReLU-58            [-1, 256, 7, 7]               0
    ResidualBlock-59            [-1, 256, 7, 7]               0
           Conv2d-60            [-1, 256, 7, 7]         589,824
      BatchNorm2d-61            [-1, 256, 7, 7]             512
             ReLU-62            [-1, 256, 7, 7]               0
           Conv2d-63            [-1, 256, 7, 7]         589,824
      BatchNorm2d-64            [-1, 256, 7, 7]             512
             ReLU-65            [-1, 256, 7, 7]               0
    ResidualBlock-66            [-1, 256, 7, 7]               0
AdaptiveAvgPool2d-67            [-1, 256, 1, 1]               0
           Linear-68                  [-1, 200]          51,400
================================================================
Total params: 2,850,280
Trainable params: 2,850,280
Non-trainable params: 0
----------------------------------------------------------------
Input size (MB): 0.57
Forward/backward pass size (MB): 31.39
Params size (MB): 10.87
Estimated Total Size (MB): 42.84
----------------------------------------------------------------
